…
ate = 0.3) %%\n  layer_dense(units = 10, activation = 'softmax')\n\nThe input_shape argument to the first layer specifies the shape of the input data (a length 784 numeric vector representing a grayscale image). The final layer outputs a length 10 numeric vector (probabilities for each digit) using a softmax activation function.\n\nUse the summary() function to print the details of the model:\n\nsummary(model)\n\npre style=\"box-shadow: none;\"codeModel\n____________________\nLayer (type)                        Output Shape                    Param      \n\ndense_1 (Dense)                     (None, 256)                     200960      \n____________________\ndropout_1 (Dropout)                 (None, 256)                     0           \n____________________\ndense_2 (Dense)                     (None, 128)                     32896       \n____________________\ndropout_2 (Dropout)                 (None, 128)                     0           \n____________________\ndense_3 (Dense)                     (None, 10)                      1290        \n\nTotal params: 235,146\nTrainable params: 235,146\nNon-trainable params: 0\n____________________/code/pre\n\nNext, compile the model with appropriate loss function, optimizer, and metrics:\n\nmodel %% compile(\n  loss = 'categorical_crossentropy',\n  optimizer = optimizer_rmsprop(),\n  metrics = c('accuracy')\n)\n\nTraining and Evaluation\n\nUse the fit() function to train the model for
…
t, auxiliaryinput)) %%  \n  layer_dense(units = 64, activation = 'relu') %% \n  layer_dense(units = 64, activation = 'relu') %% \n  layer_dense(units = 64, activation = 'relu') %% \n  layerdense(units = 1, activation = 'sigmoid', name = 'mainoutput')\n\nThis defines a model with two inputs and two outputs:\n\nmodel <- keras_model(\n  inputs = c(maininput, auxiliaryinput), \n  outputs = c(mainoutput, auxiliaryoutput)\n)\n\nsummary(model)\n\nModel\n________________________\nLayer (type)                 Output Shape        Param #    Connected to                  \n\nmain_input (InputLayer)      (None, 100)         0                                        \n________________________\nembedding_1 (Embedding)      (None, 100, 512)    5120000                                  \n________________________\nlstm_1 (LSTM)                (None, 32)          69760                                    \n________________________\naux_input (InputLayer)       (None, 5)           0                                        \n________________________\nconcatenate_1 (Concatenate)  (None, 37)          0                                        \n________________________\ndense_1 (Dense)              (None, 64)          2432                                     \n________________________\ndense_2 (Dense)              (None, 64)          4160                                     \n________________________\ndense_3 (Dense)              (None, 64)          4160                                     \n________________________\nmain_output (Dense)          (None, 1)           65                                       \n________________________\naux_output (Dense)           (None, 1)           33                                       \n\nTotal params: 5,200,610\nTrainable params: 5,200,610\nNon-trainable params: 0\n________________________\n\nWe compile the model and assign a weight of 0.2 to the auxiliary loss.\nTo specify different loss_weights or loss for each different output, you can use a list or a dictionary.\nHere we pass a single loss as the loss argument, so the same loss will b
…
